classifier/pothole-net.tflite (tflite, 32568 bytes, 6 tensors)

sequential/dense/BiasAdd/ReadVariableOp/resource f4 [3]
00000000: 7236 133c da7e 1d3b 0044 09bf
0.008985149 0.0024031908 -0.53619385

sequential/lstm/Read_2/ReadVariableOp/resource f4 [128]
00000000: aa79 ec3c adec 9f3c 7d8a c53c ff96 ac3b
00000010: c45a 403d 9820 3f3d bc10 aa3c 2b11 563d
00000020: e5cd e63d 5492 ad3c 6924 073d 8619 14bd
00000030: 782a 7d3c 5bf2 1b3c 772f 5f3d 974e b03c
00000040: 4c8f 193d ce6f 3d3c d0ec d2bb f628 3d3c
00000050: 9045 2f3c 8f5a a13c d437 553d 71e9 203d
00000060: f5b5 ad39 6222 a8ba 7e42 c33b d8a5 1abd
00000070: 91b1 e73c 73bb 9e3c 38d2 263d 0afa 193d
00000080: 601d 833f d5d6 893f 2943 843f 2af0 813f
00000090: 3ac5 863f f2c9 873f d03b 863f 0c25 7e3f
000000a0: 1a4c 883f 1156 8a3f bd1d 813f ea30 8a3f
000000b0: 9975 873f cb49 7f3f 5705 893f d2a1 883f
000000c0: 6294 863f 9637 8a3f 311c 853f 8eb0 873f
000000d0: 76e2 873f f146 853f cdb2 853f 45b5 873f
000000e0: f860 873f e012 843f 1fba 893f ea62 803f
000000f0: 8bec 833f cba5 833f 8d5b 863f 03b5 843f
00000100: e81f 773b fa17 02bd dd3d 3c3b 8e9f 40bb
00000110: 7a58 bc3d 1ed3 033d 8c13 e33b 8450 52bc
00000120: 48a8 403b 5e5a ffb9 04cc 8dbc f73b a7bc
00000130: 5973 35bc 8fb0 26bd c0bd 043b f0da cf3a
00000140: 21f8 c7ba 20d7 923c e8a0 6dbb 0b09 093d
00000150: 5528 c53c cd9a 45bb d5da 413d 9e79 00bb
00000160: 7a24 f9bb 9360 28ba c233 c53b 4ec0 1c3c
00000170: 66de 80bc a343 09bc b877 52bc 492a c93c
00000180: 0b59 b23d 0cc7 943d 342e 793d 893c 973c
00000190: 82f4 073d c983 7f3d af00 c23d 28a4 a53d
000001a0: 2aba d63d 4290 383d 4fa5 0b3d b53f 813d
000001b0: 7cfa 823d 3f85 9b3c bff1 8f3d 669c a23d
000001c0: da94 783d 6b9c 873d e3cf f03c b0b1 653d
000001d0: 00de a63d 752b eb3c 4c42 ef3d 3b04 883c
000001e0: e1a2 7c3d 134c a83d 0ba5 873d 35f7 0a3d
000001f0: 7555 893d 3047 843d 2c2e 2c3d 0bb7 4c3d
0.028866608 0.019522035 0.024113888 0.0052670236 0.04696156 0.046661943 0.020759933 0.052262466
0.1126974 0.021187939 0.032993708 -0.036157154 0.01545202 0.009518231 0.054488625 0.02152185
0.037490174 0.011562301 -0.0064369217 0.01154541 0.010697737 0.019696502 0.052055195 0.039285127
0.000331327 -0.001282763 0.005958854 -0.037755817 0.028282912 0.019376492 0.040727824 0.03759197
1.024334 1.0768687 1.0332996 1.0151417 1.0528939 1.0608504 1.0487003 0.9927528
1.0648224 1.0807515 1.00872 1.0796177 1.0582763 0.99721974 1.0704755 1.0674384
1.0514033 1.0798213 1.0399228 1.0600755 1.0615985 1.0412275 1.0445191 1.0602194
1.0576468 1.031826 1.0759925 1.0030186 1.0306562 1.0284971 1.0496689 1.036774
0.0037708227 -0.031761147 0.0028723397 -0.0029391977 0.09196563 0.03218376 0.0069298204 -0.012836579
0.0029397178 -0.0004870472 -0.017309196 -0.020414336 -0.011074864 -0.040695723 0.0020254701 0.0015858095
-0.0015256443 0.017924845 -0.0036259238 0.03345589 0.024067083 -0.0030152083 0.047327835 -0.001960374
-0.0076032253 -0.0006423082 0.006018133 0.009567333 -0.015731048 -0.008377942 -0.012845926 0.024556296
0.0870839 0.07264528 0.06083508 0.018461483 0.033192165 0.06238154 0.09472787 0.08087951
0.10484727 0.04505945 0.034093197 0.06310979 0.06395432 0.018984435 0.07028531 0.07939987
0.06068883 0.06621631 0.029396003 0.05607766 0.08147812 0.028707245 0.11682567 0.01660358
0.06167877 0.08217635 0.06623276 0.03392716 0.06705753 0.064588904 0.04203622 0.04997925

sequential/dense/MatMul f4 [3, 32]
00000000: 2953 793e 0679 72be b347 fd3d 255f d1be
00000010: 8ecc b1be 5ccc 813e f698 b4be 2f6f 353e
00000020: 5c73 463e f574 b2be e7f4 4fbe c028 c1be
00000030: 3f25 38bd 69be 58be 945a 7a3e a098 853e
00000040: b6a2 f1bd e8d6 033e cde1 20bd 1bf6 903e
00000050: a5e4 32bd d6b5 253e 9d93 ac3e 9373 9bbe
00000060: 8a4f 093e fd22 f63e b085 853e 89e0 89be
00000070: 7a1d 89bb 5220 733e 5b66 a23d 98aa c9be
00000080: 155c f7bd 65a5 963d 734b 8cbc 5853 a53d
00000090: e69a f93c 6f6f c63e 23a4 31be 075d d43e
000000a0: e996 65be 9287 3dbe cc1e 9f3e b641 ef3e
000000b0: 06ea c3be 89b5 c73e e308 4e3c 6f6a 97be
000000c0: 6a4f 683e da6d 83be 33a4 f03e bf03 813e
000000d0: cd5d 03be fbe0 08be 820d af3e 3876 e53e
000000e0: 304c 92be 1dab 593e 4d7b 26be 1eee cb3e
000000f0: 6be0 313e 7cbb 89bd aab5 debd dd20 4b3b
00000100: 88ed 27bf fa9d 3a3f d920 2bbf 0806 21bf
00000110: f0f4 2bbf 5e34 42bf 42b5 3a3f ebf6 a03e
00000120: 7f15 07bf a6af 033e 6554 de3e 8ac6 c8bd
00000130: abf7 fc3e bbff f73e 5f14 263f e278 06bf
00000140: c190 633f 1b73 f93d c1df af3e 564a 563f
00000150: 454e 143f 808c 1d3f 5470 2fbf 9f79 e5be
00000160: 8c39 0e3f bc71 55be a654 bcbe 37c3 24bf
00000170: 5c53 fbbe aee5 45bf 8d6e 533f 5b87 12bf
0.2434813 -0.2367898 0.12367191 -0.40892902 -0.34726375 0.25351226 -0.3527295 0.17718194
0.19379944 -0.34854856 -0.20308267 -0.37726402 -0.044957396 -0.21166386 0.24448615 0.26093006
-0.11798613 0.12874949 -0.03927784 0.28312764 -0.043675084 0.16182646 0.3370637 -0.30361614
0.13409248 0.4807357 0.26078558 -0.2692912 -0.004184422 0.23742798 0.07929679 -0.39387965
-0.1207811 0.07355765 -0.01712582 0.08072537 0.03046937 0.38756892 -0.1734777 0.41477224
-0.22420849 -0.18508747 0.31078184 0.4672982 -0.38264483 0.39005688 0.012575361 -0.2957339
0.22686544 -0.25669748 0.47000274 0.2519817 -0.12828751 -0.13367073 0.34189993 0.44816756
-0.2857375 0.21256681 -0.16257973 0.39830106 0.17370765 -0.06725213 -0.108744934 0.003099493
-0.6559682 0.72897303 -0.66846997 -0.6289983 -0.6717062 -0.75861156 0.7293283 0.31438383
-0.52767175 0.12859973 0.43423763 -0.09803493 0.49407706 0.48437294 0.64874834 -0.525282
0.8889275 0.12180158 0.34350398 0.8370718 0.5793193 0.6154251 -0.68530774 -0.44819352
0.5555656 -0.20844167 -0.36783332 -0.64360374 -0.49087036 -0.7730359 0.8259056 -0.57237786

sequential/lstm/Read_2/ReadVariableOp/resource1 f4 [128]
00000000: aa79 ec3c adec 9f3c 7d8a c53c ff96 ac3b
00000010: c45a 403d 9820 3f3d bc10 aa3c 2b11 563d
00000020: e5cd e63d 5492 ad3c 6924 073d 8619 14bd
00000030: 782a 7d3c 5bf2 1b3c 772f 5f3d 974e b03c
00000040: 4c8f 193d ce6f 3d3c d0ec d2bb f628 3d3c
00000050: 9045 2f3c 8f5a a13c d437 553d 71e9 203d
00000060: f5b5 ad39 6222 a8ba 7e42 c33b d8a5 1abd
00000070: 91b1 e73c 73bb 9e3c 38d2 263d 0afa 193d
00000080: 601d 833f d5d6 893f 2943 843f 2af0 813f
00000090: 3ac5 863f f2c9 873f d03b 863f 0c25 7e3f
000000a0: 1a4c 883f 1156 8a3f bd1d 813f ea30 8a3f
000000b0: 9975 873f cb49 7f3f 5705 893f d2a1 883f
000000c0: 6294 863f 9637 8a3f 311c 853f 8eb0 873f
000000d0: 76e2 873f f146 853f cdb2 853f 45b5 873f
000000e0: f860 873f e012 843f 1fba 893f ea62 803f
000000f0: 8bec 833f cba5 833f 8d5b 863f 03b5 843f
00000100: e81f 773b fa17 02bd dd3d 3c3b 8e9f 40bb
00000110: 7a58 bc3d 1ed3 033d 8c13 e33b 8450 52bc
00000120: 48a8 403b 5e5a ffb9 04cc 8dbc f73b a7bc
00000130: 5973 35bc 8fb0 26bd c0bd 043b f0da cf3a
00000140: 21f8 c7ba 20d7 923c e8a0 6dbb 0b09 093d
00000150: 5528 c53c cd9a 45bb d5da 413d 9e79 00bb
00000160: 7a24 f9bb 9360 28ba c233 c53b 4ec0 1c3c
00000170: 66de 80bc a343 09bc b877 52bc 492a c93c
00000180: 0b59 b23d 0cc7 943d 342e 793d 893c 973c
00000190: 82f4 073d c983 7f3d af00 c23d 28a4 a53d
000001a0: 2aba d63d 4290 383d 4fa5 0b3d b53f 813d
000001b0: 7cfa 823d 3f85 9b3c bff1 8f3d 669c a23d
000001c0: da94 783d 6b9c 873d e3cf f03c b0b1 653d
000001d0: 00de a63d 752b eb3c 4c42 ef3d 3b04 883c
000001e0: e1a2 7c3d 134c a83d 0ba5 873d 35f7 0a3d
000001f0: 7555 893d 3047 843d 2c2e 2c3d 0bb7 4c3d
0.028866608 0.019522035 0.024113888 0.0052670236 0.04696156 0.046661943 0.020759933 0.052262466
0.1126974 0.021187939 0.032993708 -0.036157154 0.01545202 0.009518231 0.054488625 0.02152185
0.037490174 0.011562301 -0.0064369217 0.01154541 0.010697737 0.019696502 0.052055195 0.039285127
0.000331327 -0.001282763 0.005958854 -0.037755817 0.028282912 0.019376492 0.040727824 0.03759197
1.024334 1.0768687 1.0332996 1.0151417 1.0528939 1.0608504 1.0487003 0.9927528
1.0648224 1.0807515 1.00872 1.0796177 1.0582763 0.99721974 1.0704755 1.0674384
1.0514033 1.0798213 1.0399228 1.0600755 1.0615985 1.0412275 1.0445191 1.0602194
1.0576468 1.031826 1.0759925 1.0030186 1.0306562 1.0284971 1.0496689 1.036774
0.0037708227 -0.031761147 0.0028723397 -0.0029391977 0.09196563 0.03218376 0.0069298204 -0.012836579
0.0029397178 -0.0004870472 -0.017309196 -0.020414336 -0.011074864 -0.040695723 0.0020254701 0.0015858095
-0.0015256443 0.017924845 -0.0036259238 0.03345589 0.024067083 -0.0030152083 0.047327835 -0.001960374
-0.0076032253 -0.0006423082 0.006018133 0.009567333 -0.015731048 -0.008377942 -0.012845926 0.024556296
0.0870839 0.07264528 0.06083508 0.018461483 0.033192165 0.06238154 0.09472787 0.08087951
0.10484727 0.04505945 0.034093197 0.06310979 0.06395432 0.018984435 0.07028531 0.07939987
0.06068883 0.06621631 0.029396003 0.05607766 0.08147812 0.028707245 0.11682567 0.01660358
0.06167877 0.08217635 0.06623276 0.03392716 0.06705753 0.064588904 0.04203622 0.04997925

while/MatMul f4 [128, 6]
00000000: a53c 63be ee58 06bd 61a1 f93d 85c4 f93d
00000010: 31f1 47bd 7e95 2cbe adc4 b9bc bda9 2fbe
00000020: 427a 9fbe 54e6 36be 520a 80be cf89 ddbd
00000030: 52a7 44be 6dd0 043d 7c02 0f3e 14b9 c9bd
00000040: f649 2d3e aa69 083e 6a3c 4a3e 3c54 793d
00000050: 01be 333e 5dd1 6cbe b0cb 093e d5ae d93d
00000060: d557 303e 0591 64be 8b18 41bc f030 f3bd
00000070: 0803 00bc c5b0 373e 9e53 233c 90f8 a63d
00000080: f877 1b3e 5e57 203e ac1a 333e ad8b 073e
00000090: 732d 4dbd 94ba 25be 302e 77bc 1fec 69bd
000000a0: 5bf1 053e 1427 ecbd cc3f d83d 91c3 cbbd
000000b0: 50a1 6bbd 0451 2e3e 0236 4fbe f867 c5be
000000c0: bfb2 2ebd 29f9 243e 0d3c e63d ddcd 0f3d
000000d0: 4cdc 373e 2506 8a3e 5312 0f3d 6921 9a3d
000000e0: 7591 f1bd d54a adbd aa72 ecbd 59e7 48be
000000f0: 76ac bbbd 9a05 bcbd 8fdc 0b3e 5ad8 8bbd
00000100: af51 953d 0bcc de3e e3ea fb3d 3215 9e3e
00000110: 1c0d 2d3e 7a67 843e 7e75 aabd e02f 42bd
00000120: af2a 04be 3df1 f93c acc5 43bd d4f2 033d
00000130: 07b2 423e fd24 cfbb ecef 413e b018 9fbd
00000140: 5581 0f3e 5b60 783e d609 bebd a910 3fbd
00000150: b540 233e 031e 13bd d944 2d3d 92d4 223e
00000160: 9462 c9bd 7182 a03d 45a0 f0bd 156e 28be
00000170: 8dab 89be 1a7c 57bd c511 f23d 77ac ac3e
00000180: 48bc 353d a8a8 25be 7e23 7fbd 856a c5bd
00000190: c8ce cbbd 1d78 203e 5ddb 613c 0add 87be
000001a0: 10ed 53be 06f7 a9bd 9a48 93bd d774 34be
000001b0: 59df d1bd 6b42 eb3d c8f5 e1bd 45ba e9bd
000001c0: 392d 40be 86ba 0e3e 8782 80be 2ac2 31be
000001d0: 88ae 523e 5124 3fbe 220c 8c3c ce97 4a3e
000001e0: 8c7f 213e baa1 083e 5727 3cbe d892 e13d
000001f0: 7532 2ebd 7a95 9a39 749f 55be f7b3 383e
00000200: b2a3 1fbd 8b3f 9ebc 6576 ee3d 0d62 2e3e
00000210: a036 ad3d 8a13 b2bd 87f1 efbd f721 87bc
00000220: e936 aa3d 8558 a0be e1e9 91be 7276 923c
00000230: c5f9 96bd 28b6 55be ec86 13be cf24 033d
00000240: 54cb 113e ec1f 83bc ccd1 bcbd 4034 a03d
00000250: 0b52 473d 23d9 d83d d6c5 003e e822 6abe
00000260: bd01 ad3c b85d 853b c055 dfbd 6ec9 1ebe
00000270: f638 b43d afeb 7ebe 00ec c53d 6585 533e
00000280: 607b 083d 4cd4 abbb 6bdc 873e a8bd ba3d
00000290: 40de eebc c16f 333e 4c24 65bd b8e9 143d
000002a0: 0321 3dbe 0c8a f63d 040c a43a 67e1 34be
000002b0: 3c73 b7bd 0278 673d 74fa ec3d b709 143e
000002c0: 9f74 26be b2f6 53be be89 443e 5944 be3e
000002d0: 7841 6bbe 2f33 953d b5cb 493d b979 24be
000002e0: ea9d 8d3d 3e0b 8dbd f56f 4bbe 3d57 e33d
000002f0: 422e 033d de50 933d 6ce8 d03c 9307 ed3d
00000300: 65e7 603e 1730 3a3e a2fc 013e d1c5 b1bd
00000310: dc1b 7dbc 7185 30bd 52bc 0fbe e522 4c3e
00000320: fccf a63e 9bbe 66bc 3c68 2b3d 4f67 8d3e
00000330: de56 693e 6b1e f8bd 40b5 1d3e 391a 3c3d
00000340: 06fa b43d 5d97 8f3d bdb0 fcbd 8e81 2ebe
00000350: a0ad 0a3e bb6e 5cbe 29dc 513e 37a8 483e
00000360: 3021 153e 97d1 2f3e 15db 5fbe e55a f7bb
00000370: 9023 ee3c e295 5bbe 8fe6 543d 70ff 863d
00000380: 2d11 a5bd c230 f3bd ea04 b7bd 7544 c0bd
00000390: 0c9b 8bbc eec6 863e 1b8e c53d daf6 eabc
000003a0: 8f0b 4b3e 5a9e 22be e356 d9bd 6668 573e
000003b0: 7aaf a03c 8542 7dba e2d9 11bd e84e 8ebd
000003c0: eca2 363e 1e17 96bd d53d a43e 1129 1abe
000003d0: 3126 fbbd 7584 ac3d 2a10 73bd fcd2 30be
000003e0: e86f 003e 98ff e6bd 6847 f13d ac39 b8bc
000003f0: be9d 003e 82e4 97bd 18a4 13bd 15cb c03d
-0.22191103 -0.032799654 0.12188984 0.12195686 -0.048814002 -0.16853902 -0.02267679 -0.17154594
-0.31147963 -0.178613 -0.25007874 -0.108173005 -0.19204453 0.032425333 0.13965791 -0.09849754
0.16922745 0.13321558 0.19749609 0.060871348 0.1755295 -0.23126741 0.13456607 0.1062905
0.17221005 -0.22320946 -0.011785637 -0.118745685 -0.007813223 0.17938526 0.009968666 0.08152878
0.15182483 0.15658328 0.17490643 0.13236876 -0.050092172 -0.16184455 -0.015086696 -0.05710995
0.13080351 -0.11530891 0.10559043 -0.09949411 -0.057526886 0.17023093 -0.20235446 -0.38555884
-0.042650934 0.16110672 0.112419225 0.035108436 0.1795513 0.26957813 0.034929585 0.07525904
-0.11795322 -0.08461539 -0.11545308 -0.19619502 -0.09163754 -0.09180756 0.13658355 -0.06828375
0.072909705 0.43515047 0.123006605 0.30875546 0.16899532 0.25860196 -0.08323191 -0.04740894
-0.12906907 0.03051054 -0.047795936 0.032214 0.19013225 -0.006321548 0.18939179 -0.07768381
0.1401418 0.24255507 -0.0927922 -0.046646748 0.15942653 -0.035917293 0.042301986 0.15901402
-0.098332554 0.0783738 -0.11749319 -0.16448243 -0.26888695 -0.052608587 0.118197955 0.3372533
0.044369012 -0.16177619 -0.062289707 -0.096394576 -0.0995155 0.1567082 0.01378521 -0.26535827
-0.20695901 -0.08299069 -0.07191582 -0.17622696 -0.10247678 0.114872776 -0.11033207 -0.11412481
-0.18767251 0.1393834 -0.25099584 -0.17359224 0.20574391 -0.18666197 0.01709563 0.19784471
0.15771312 0.13342944 -0.18374382 0.11014336 -0.04252859 0.00029484538 -0.20861608 0.18037401
-0.03897447 -0.019317409 0.11643676 0.17029591 0.084576845 -0.08695133 -0.117159896 -0.016495688
0.083112545 -0.31317535 -0.28498748 0.017878745 -0.073718585 -0.20870268 -0.14406937 0.032017525
0.1423772 -0.016006432 -0.09219703 0.07822466 0.048662227 0.105882905 0.12575468 -0.22864878
0.021118993 0.00407001 -0.109050274 -0.15506527 0.08799927 -0.24894594 0.09664154 0.20656355
0.033320785 -0.0052438136 0.26535353 0.09118205 -0.029158711 0.175231 -0.05594282 0.036355704
-0.18469624 0.12038049 0.0012515788 -0.17664109 -0.08957526 0.056510933 0.11571208 0.14456831
-0.16255425 -0.20699576 0.1919317 0.3716152 -0.22974193 0.07285153 0.049266536 -0.16062059
0.06914885 -0.0688691 -0.19866927 0.11100624 0.032026537 0.071931586 0.025501452 0.1157371
0.2196327 0.18182407 0.12694028 -0.086803086 -0.015448537 -0.04309601 -0.14036682 0.19935186
0.32580554 -0.01408353 0.041847453 0.2761788 0.22787043 -0.12115177 0.15401173 0.045923445
0.08836751 0.07011292 -0.12338398 -0.17041609 0.13542795 -0.21526615 0.2049414 0.19595419
0.14563441 0.17169796 -0.21860917 -0.0075486773 0.029069692 -0.21443895 0.05197769 0.065916896
-0.08059917 -0.11874534 -0.08936484 -0.09388057 -0.017041706 0.26323646 0.09646245 -0.028682161
0.19828628 -0.15880719 -0.106122755 0.21035919 0.019614924 -0.0009661096 -0.03560818 -0.06948644
0.17835587 -0.07328628 0.32078424 -0.15054728 -0.12263144 0.08423702 -0.059341587 -0.17267984
0.12542689 -0.112792194 0.11781198 -0.022488438 0.12560174 -0.07416631 -0.036045164 0.09413735

while/MatMul_1 f4 [128, 32]
00000000: 63fc 30be 0b45 033d f90a 273d 5f09 543c
00000010: a69f 16bd 0bad b43d 0c86 c0bd 5fcb 083e
00000020: b5d7 61bd f91e 023e 4643 babc 4dad 05be
00000030: 284c f83d 9b2e f7bc fc7b c9bd 85e0 c93c
00000040: 4874 4a3d 4575 3bbd dc53 d53b fa8f 95bd
00000050: 8c72 ffbd b148 c73d e77b 0a3d b898 003c
00000060: e297 693e d52e f5bd 7018 d73d 7122 edbd
00000070: 39a3 3a3e fefb 033e 6927 0ebe 054c 893b
00000080: 2078 a5bd 12fe f4bb 4c8d 1f3e 3fcf b73c
00000090: aafc f6bd 3c81 d4bb 0e0a d83c aba6 dc3c
000000a0: a485 433e 0c25 e7bd 6797 43bd cda8 e7bd
000000b0: 6668 39be 7c7a afbc 9dc1 2c3e c548 8fbc
000000c0: 7296 c5bc 94df ba3d 9ab3 8f3c 5490 c6b9
000000d0: 6023 ad3d 2801 6bbd efff 593d fc62 56be
000000e0: 3a9e 4abc 7f7c 753d dea8 2c3d 7100 dbbd
000000f0: 37da 28bd e746 763d e73c c4bd f924 013d
00000100: 5c0b 1b3e f021 62bd c03f 283e 0e55 a63d
00000110: 6124 7abd 085f c83c a9c1 a53d ac30 2a3e
00000120: 33ab b8bc 0137 7abd 9f57 703d 68db 33be
00000130: 2f58 883d 53b4 1dbe 35db 76bd 1de6 46bd
00000140: 7504 653a 5383 88bd 9173 86be 935b 6abd
00000150: a17c e33d 570e 5a3d adce 93bd 2065 c63d
00000160: 07a8 d83d 422c 9d3d 8e76 a8bd c323 a83d
00000170: 6f5a 8d3c f41d 9e3d 609e cbbd 251d ebbc
00000180: b419 9c3d 202d f23d a297 1bbc 3669 c4bb
00000190: 8255 723d 3e7f 06bc f93a 8c3d 09cf 363e
000001a0: c8f3 08be a8a2 063e 273c 81be 852c 2d3d
000001b0: 4961 acbd ea09 563e 93e8 8d3d 304c ed3d
000001c0: 2a48 87bc 8d7a abbb 7b02 cb3d 9dfd 4cbd
000001d0: 8155 e2bd 1a5f 983d 26e6 b13b 1abc a7bd
000001e0: 1f2a 373d 7389 bc3d 20f5 80bd b41e 56bd
000001f0: 7d7e 083e b093 ef3d ab72 37bc 5a41 053e
00000200: 2440 6e3a 0f94 e8bd cda2 c5bd e34b 10bd
00000210: b060 853c 60f6 0d38 8bc5 143e f1d8 443e
00000220: c0a5 ccbd a9c2 f63d 9b3c 83bc e454 663e
00000230: efb4 31bd 466a 8dbc a06d 52be 85b7 4dbd
00000240: 93d2 46bd 9a7f b5bd 511c 2a3d 43a1 a93c
00000250: 9db6 60bd d92f f9bd 0976 913c 281f 44bd
00000260: 55b1 8cbe b316 c23c 0cfb c2bc 39e2 803d
00000270: cd0e 353b aeda 373e 44d9 2bbc 9654 8a3c
00000280: 05e8 193d d8fe 50bc d28e 0b3c 41c6 8b3d
00000290: c49f 6bbb 2c3a f1bd 54fe 4fbd 4c51 d93a
000002a0: b766 85be bf73 623d 0fd8 363e 6632 3e3d
000002b0: 37b9 a1bd 2a73 403e 4ca9 0fbe 2884 0bbd
000002c0: bc77 83bd 5c09 3ebe 454f ebbd 5712 17bc
000002d0: a9cf 0cbe 1b1d 7e3b c0e7 363d d7f1 25bd
000002e0: 3834 99bc e4ec 663d 350a 7cbc 5cfd 9d3c
000002f0: e0c0 0f3e 3357 91bd bfa8 06bc ace7 e53d
00000300: 77a3 aebc ae5c 523e 9af7 673c 3de2 e7bd
00000310: ddeb 463d 052f 963b b555 823d c186 f2bb
00000320: 55c8 a03e 7df4 613e 2091 8e3d 01d2 a2bd
00000330: 0506 d7bd aa02 b43d 2814 58bd c34c cfbc
00000340: 4f28 0b3d 65a6 c9bd be32 ae3d b4b6 edbb
00000350: 1812 cf3d 8f06 4d3e 1c1f c73c 827c 543c
00000360: ea25 8d3a 8c1e 21bc b74c c93d 17c2 0b3d
00000370: a7e6 3f3c d769 3c3d ea31 c7bd 98db 0fbd
00000380: 66df d63b ecfb 94bd 8d78 583d 28dc 293e
00000390: 4de3 89bc e99f 3f3e 765b 9b3d e1e0 82be
000003a0: 7480 fa3d 9f43 053e 34eb 3b3c e39c fe3d
000003b0: 5af0 98bc 878c 9a3d 6558 62be 78bd c9bd
000003c0: 4400 433d 2f1c f93d e403 2ebe 7c18 cd3b
000003d0: 37a3 ab3a 9d20 48bd 5733 423e eff9 debd
000003e0: 61f6 f43b 3ed8 423d a71b d23d 3175 663b
000003f0: fe2d fdbc 0109 523e b41c 4bbe 56e6 88bd
-0.17283778 0.032048266 0.04078195 0.012941687 -0.036773346 0.08822068 -0.094005674 0.1335883
-0.055137355 0.12707128 -0.022737157 -0.1305439 0.12123901 -0.03017359 -0.09838101 0.024643192
0.0494273 -0.045766134 0.006510241 -0.07302852 -0.1247302 0.09730662 0.03380957 0.007848911
0.22811845 -0.11971823 0.10502708 -0.11578835 0.18226327 0.12889096 -0.13882221 0.0041899704
-0.08079553 -0.0074765766 0.15581244 0.02243769 -0.120599106 -0.0064851325 0.026371982 0.026934942
0.19093949 -0.11286363 -0.04775181 -0.11311493 -0.18106231 -0.02142071 0.16870733 -0.017490754
-0.02411959 0.091246754 0.017541695 -0.00037873036 0.08454013 -0.05737415 0.053222593 -0.20936197
-0.012366826 0.05993318 0.04215323 -0.106934436 -0.04122373 0.06012621 -0.09581929 0.0315294
0.15141052 -0.055208147 0.16430569 0.08121692 -0.06106985 0.024459377 0.08093578 0.1662013
-0.022542572 -0.061087612 0.058677312 -0.17564166 0.06657445 -0.1540082 -0.060267646 -0.048559297
0.0008736321 -0.06665673 -0.26260045 -0.05721624 0.111077555 0.05323633 -0.07217155 0.09687257
0.10578924 0.07674457 -0.082257375 0.08209946 0.017255036 0.07720557 -0.09942317 -0.02870042
0.0762209 0.11825013 -0.009496601 -0.0059939874 0.059163578 -0.008209048 0.06847186 0.17852415
-0.13374245 0.13147986 -0.25241205 0.042278785 -0.08416993 0.2090222 0.06929126 0.11586797
-0.016513903 -0.005233115 0.099125825 -0.050046552 -0.11051465 0.07440014 0.005429047 -0.081901744
0.044717904 0.09205904 -0.06296754 -0.052275375 0.13329501 0.11698091 -0.011196773 0.13013211
0.0009088537 -0.11356365 -0.096501924 -0.03522862 0.016281456 3.3846474e-05 0.14528482 0.19223382
-0.09992552 0.12048847 -0.01602011 0.2249332 -0.043385442 -0.01726259 -0.20549631 -0.050223846
-0.048540663 -0.08862229 0.04153091 0.020706778 -0.054861654 -0.12167329 0.017756479 -0.047881275
-0.27479044 0.023692464 -0.02380135 0.062931485 0.002762723 0.17954513 -0.010488812 0.016886037
0.037574787 -0.012756072 0.008517938 0.06824923 -0.0035953382 -0.117786735 -0.050779656 0.0016580014
-0.26054928 0.055286165 0.17855857 0.046434782 -0.07896655 0.18793932 -0.14029425 -0.03406158
-0.06419322 -0.18558258 -0.11489729 -0.009220681 -0.13751091 0.0038774672 0.044654608 -0.04051384
-0.018701658 0.05637826 -0.015383293 0.01928585 0.1403842 -0.0709671 -0.008218943 0.112258285
-0.02131818 0.20543167 0.014158154 -0.113224484 0.04856478 0.004583242 0.063640036 -0.007401318
0.3140284 0.22065921 0.06961274 -0.07950211 -0.10499195 0.08789571 -0.052753597 -0.025305158
0.03397399 -0.0984619 0.08505772 -0.007254446 0.10110873 0.20022033 0.024306826 0.012969138
0.0010768746 -0.009833943 0.09829085 0.034120645 0.011712707 0.045999374 -0.09726317 -0.03512153
0.006557393 -0.07274613 0.05284934 0.16587889 -0.016832018 0.18713345 0.07585804 -0.25562194
0.12231532 0.13014077 0.011469651 0.124322675 -0.018669296 0.07546335 -0.22104032 -0.098505914
0.047607675 0.12163579 -0.16993672 0.0062590223 0.0013094906 -0.048859227 0.18964897 -0.10887515
0.0074756597 0.047569506 0.102591805 0.0035165066 -0.03090572 0.20511247 -0.19835168 -0.06684558
